models/model_light(16)_0.pth (torch, 315394 bytes, 97 tensors)

L1.0.weight f4 [32, 3, 3, 3]
0	0x3cd9990b	0.026562234
1	0xbe0d55b2	-0.13802221
2	0x3e42252d	0.18959494
3	0x3dc6bd6a	0.097040966
4	0x3e44961f	0.19197892
5	0x3e2df996	0.1698974
6	0xbe0c5216	-0.13703188
7	0xbe197a49	-0.14988054
8	0xbe27d4f7	-0.16389833
9	0x3e3885ae	0.18019745
10	0xbd751734	-0.05983658
11	0xbde8f745	-0.11375288
12	0x3d68eb58	0.056865066
13	0xbe258262	-0.16163018
14	0xbe2d62a4	-0.1693216
15	0xbe128db8	-0.14311874
16	0xbdddb86d	-0.10826192
17	0xbe2d9cc7	-0.16954337
18	0x3e02de38	0.12780082
19	0xbe077b81	-0.13230707
20	0xbd275c69	-0.040859614
21	0x3dcb6db2	0.09933032
22	0xbd195ab3	-0.037440013
23	0x3e2461c4	0.1605292
24	0x3e0faba1	0.14030315
25	0xbe3b3635	-0.18282397
26	0x3e172d48	0.14763367
27	0x3e2078f1	0.15671135
28	0x3e2893cb	0.16462629
29	0xbe42fe15	-0.19042237
30	0x3dc59b64	0.09648779
31	0xbd951f3b	-0.07281347
32	0x3da3e613	0.080028675
33	0x3db306b6	0.087415144
34	0xbd217a94	-0.03942354
35	0x3dd34bbc	0.103171796
36	0xbe391cc7	-0.18077384
37	0xbcf6cbfa	-0.03012656
38	0xbe2b6a57	-0.16739784
39	0xbe290987	-0.1650754
40	0xbe0471b3	-0.12933998
41	0x3e1fdaa3	0.15610747
42	0xbdd7f469	-0.105446644
43	0x3e328f02	0.17437366
44	0x3e34c37f	0.17652701
45	0xbe008a0e	-0.12552664
46	0xbde2fb87	-0.11083131
47	0xbe205e6d	-0.1566102
48	0x3e278f1f	0.1636319
49	0x3d73a15b	0.059480052
50	0x3e411bf7	0.18858324
51	0xbe42bf6a	-0.19018331
52	0x3ca81d42	0.020521764
53	0xbe25406c	-0.16137856
54	0x3d720336	0.059085093
55	0xbbab973c	-0.0052365344
56	0x3e38d9c6	0.18051824
57	0x3d68d425	0.05684294
58	0xbdb3312c	-0.08749613
59	0xbd8e81ea	-0.06958373
60	0x3dcd364c	0.10020122
61	0xbda7b092	-0.08187975
62	0xbe20533b	-0.1565675
63	0x3d85144a	0.064980105
64	0xbd2855e1	-0.041097526
65	0x3e3d5710	0.18490243
66	0xbd586303	-0.0528288
67	0xbdde5147	-0.10855346
68	0x3e1bb99b	0.15207522
69	0x3dbd661c	0.092479914
70	0x3d807454	0.06272188
71	0xbe2406a4	-0.16018158
72	0xbcd906c1	-0.026492478
73	0xbdee45e8	-0.11634427
74	0xbc392ed3	-0.011302668
75	0xbe408cdf	-0.18803738
76	0xbda4dbfe	-0.08049773
77	0xbcd2e86f	-0.025745599
78	0xbde77270	-0.11301124
79	0xbc144d8c	-0.009051692
80	0xbe14da7e	-0.14536473
81	0x3ccb40ef	0.024811236
82	0xbdb75eff	-0.08953666
83	0xbd97e748	-0.0741716
84	0xbe0247e4	-0.12722737
85	0x3dc37f09	0.095457144
86	0x3e0196c7	0.12655173
87	0xbe141f7b	-0.14465134
88	0xbded1775	-0.1157674
89	0x3d0734d5	0.03300937
90	0x3cfd5d4f	0.030928282
91	0x3e15a3fd	0.14613338
92	0x3e1c13e6	0.15241966
93	0xbe40f29c	-0.18842548
94	0x3dfbcb69	0.12294657
95	0x3e008c15	0.12553437
96	0x3cceff1e	0.025268134
97	0xbd3779f5	-0.04479404
98	0x3e22bb81	0.1589184
99	0x3e2123fc	0.15736383
100	0xbdf6f5ad	-0.12058578
101	0xbd09072c	-0.033454105
102	0x3d821a22	0.06352641
103	0x3d5e429b	0.05426274
104	0xbda8e2a4	-0.08246353
105	0x3e1d04b1	0.15333821
106	0x3e256fef	0.1615598
107	0xbdf5530c	-0.119787306
108	0xbe1cb84a	-0.15304676
109	0xbe030bce	-0.12797472
110	0xbe2a09cd	-0.16605301
111	0x3d72f128	0.059312016
112	0xbdb4cf85	-0.08828644
113	0xbe040326	-0.12891826
114	0x3d5749ee	0.05256074
115	0x3d8df8e8	0.06932241
116	0x3e12e49f	0.14345025
117	0x3e018b94	0.12650901
118	0xbddf9234	-0.10916558
119	0x3e04e13d	0.12976547
120	0xbe3d1bbb	-0.1846761
121	0x3d09cacd	0.03364067
122	0x3dce886e	0.10084616
123	0x3dc5e01a	0.096618846
124	0x3daf6020	0.08563256
125	0x3dedb261	0.11606289
126	0xbe36cb48	-0.17850983
127	0x3db01618	0.08597964
128	0x3d42b8f3	0.047539663
129	0xbd497ee4	-0.049193278
130	0xbe201001	-0.15631105
131	0x3c7691a5	0.015049373
132	0x3e0868cd	0.13321228
133	0xbd15276a	-0.03641454
134	0xbd4b5c5a	-0.04964862
135	0xbd2e7dcb	-0.042600434
136	0xbd37fdb1	-0.044919673
137	0xbdcd3c9f	-0.10021328
138	0x3dd96d5f	0.10616564
139	0x3e249c57	0.16075264
140	0x3d866ee8	0.065641224
141	0xbcbd7e56	-0.02313153
142	0xbe315911	-0.17319132
143	0x3d3fa332	0.046786495
144	0x3be0ec54	0.00686411
145	0xbd342ec9	-0.04398993
146	0x3d818827	0.06324797
147	0x3dc8c1bf	0.09802579
148	0xbbc91713	-0.006136784
149	0x3e0a32d2	0.13495949
150	0x3da1571d	0.07877944
151	0x3e419e80	0.18908119
152	0x3e2e033a	0.16993418
153	0xbc81b71e	-0.015834387
154	0x3dc42f54	0.095793396
155	0xbe042228	-0.12903655
156	0x3e35edba	0.17766467
157	0x3e1c2505	0.15248497
158	0x3dc02c60	0.09383464
159	0xbe275e28	-0.16344512
160	0xbc99c491	-0.018770488
161	0x3cc57455	0.024103323
162	0x3d7c2be9	0.061565313
163	0x3da092aa	0.07840474
164	0x3d47a435	0.048740584
165	0xbdf3a465	-0.1189659
166	0x3dd65086	0.104645774
167	0x3c42db4e	0.011893107
168	0xbe0c0cd1	-0.13676764
169	0xbdc4f842	-0.09617664
170	0xbcb1ea54	-0.021718182
171	0xbcf23b68	-0.029569343
172	0x3db3803e	0.08764695
173	0xbe4399f5	-0.19101699
174	0xbe00644e	-0.12538263
175	0x3d3e6816	0.046485983
176	0x3e340182	0.175787
177	0x3e1b57d7	0.15170227
178	0x3de05b22	0.10954882
179	0x3d2a0650	0.041509926
180	0xbd81fd58	-0.063471496
181	0x3e024d44	0.12724787
182	0x3c037684	0.008023862
183	0xbd9140b2	-0.07092418
184	0x3d743032	0.059616275
185	0xbded4d2f	-0.11586987
186	0x3dcc766a	0.09983523
187	0xbe42927d	-0.19001193
188	0x3e1ef87d	0.15524478
189	0xbd9c6499	-0.07636375
190	0x3e1bc6eb	0.152126
191	0xbd22d6a9	-0.039755497
192	0xbe3fe662	-0.18740228
193	0xbc8936e3	-0.016749805
194	0x3e34b750	0.17648053
195	0x3c8cf67e	0.01720738
196	0xbb13a3e5	-0.0022528109
197	0x3dd9efc1	0.106414326
198	0xbcac1334	-0.02100525
199	0x3da01bc8	0.07817799
200	0x3e04be2a	0.12963167
201	0xbdcc8745	-0.09986738
202	0xbe1d2150	-0.15344739
203	0x3d1243a9	0.035709057
204	0x3d215c1e	0.03939449
205	0x3e2e71c8	0.17035592
206	0xbe026864	-0.12735134
207	0x3d85ae68	0.06527406
208	0xbe1e3eb2	-0.15453604
209	0xbd61579d	-0.055015195
210	0xbdd1df63	-0.10247686
211	0xbe211507	-0.15730678
212	0xbd97f215	-0.0741922
213	0xbdef9db0	-0.116999984
214	0xbd27d5fd	-0.04097556
215	0x3e27a84b	0.16372792
216	0x3d6a6ab1	0.057230655
217	0xbc643082	-0.013927581
218	0xbe2ba647	-0.16762649
219	0xbd1c19ac	-0.03811042
220	0xbe33f1ab	-0.17572658
221	0x3d8b5a18	0.068042934
222	0x3c071146	0.008243864
223	0x3e0d0165	0.13770063
224	0xbdb809b5	-0.089862265
225	0x3e10ce10	0.14141107
226	0xbd38a148	-0.045075685
227	0xbcc22936	-0.023701292
228	0xbdddfbbe	-0.10839032
229	0xbd109949	-0.035302434
230	0x3e14ae49	0.1451961
231	0x3e11e3ba	0.14247027
232	0xbcbf43a6	-0.023347687
233	0xbd94921b	-0.0725443
234	0xbe2124e6	-0.15736732
235	0xbd3b96d4	-0.045798138
236	0x3b8194e6	0.0039545177
237	0x3c7ed0ce	0.015552713
238	0xbd8c36cf	-0.068463914
239	0x3dd6079c	0.1045067
240	0xbe207004	-0.1566773
241	0x3dede096	0.11615102
242	0x3d5d542e	0.054035358
243	0xbe06aee0	-0.13152647
244	0xbdd9d80a	-0.10636909
245	0x3de77a90	0.11302674
246	0xbcae52af	-0.021279661
247	0xbe3650de	-0.17804286
248	0x3d85e833	0.06538429
249	0x3c078684	0.008271817
250	0x3caec896	0.021335881
251	0xbd77aa9b	-0.060465436
252	0xbe0d1afc	-0.13779825
253	0x3c918db0	0.017767757
254	0xbcef2f66	-0.029197406
255	0xbe375c9a	-0.17906418

L1.0.bias f4 [32]
0	0xbe1765e7	-0.14784966
1	0x3d926fc7	0.07150226
2	0xbe174819	-0.14773597
3	0x3e2aa586	0.16664705
4	0x3e320f7c	0.1738872
5	0x3e045f6d	0.12927027
6	0x3e0672ca	0.13129726
7	0xbe1c89c6	-0.15286931
8	0x3df31edc	0.1187112
9	0x3e2edbf4	0.17076093
10	0xbd840230	-0.0644573
11	0xbda90f7d	-0.08254907
12	0xbe261a32	-0.1622093
13	0x3debeb32	0.11519469
14	0x3e1090d5	0.14117749
15	0x3dddf7f0	0.10838306
16	0xbe365ea4	-0.1780954
17	0xbd134031	-0.03594989
18	0x3db40e8f	0.08791839
19	0x3d5287e3	0.051399123
20	0xbcc01432	-0.02344713
21	0xbd8fefc1	-0.07028151
22	0xbe3d5014	-0.18487579
23	0x3c6a53cd	0.014302206
24	0x3df28945	0.11842588
25	0x3c27a402	0.010231974
26	0x3e3d6751	0.18496443
27	0xbe2bd275	-0.16779502
28	0xbd32078e	-0.043464236
29	0xbdab8ac2	-0.08376075
30	0x3e3420f0	0.1759069
31	0x3d886b84	0.06661132

L1.2.weight f4 [16, 32, 3, 3]
0	0xbabf42be	-0.0014592034
1	0xbcfb708f	-0.03069332
2	0x3d368946	0.044564508
3	0xbd5e64ce	-0.054295354
4	0xbcfaef33	-0.030631637
5	0xbd5777f4	-0.05260463
6	0x3cc26b33	0.023732757
7	0x3d32ad8b	0.043622535
8	0xbd1f6174	-0.038911298
9	0x3be58be3	0.007005201
10	0x3c159c02	0.009131433
11	0x3cccf415	0.025018731
12	0xbc39f7e9	-0.01135061
13	0x3c857d67	0.016295148
14	0x3d6eb9cd	0.058282662
15	0x3c91b47c	0.017786257
16	0xbcc73615	-0.02431778
17	0x37372c8e	1.0918024e-05
18	0xbd692e38	-0.056928843
19	0xbd09d638	-0.03365156
20	0xbc8a867c	-0.01690983
21	0xbd1b5b3e	-0.037928812
22	0x3d2d5818	0.04232034
23	0xbd63b051	-0.05558807
24	0x3d4059f8	0.0469608
25	0x3ce484d7	0.027895374
26	0x3d0aefb3	0.03392
27	0x3cf0cbe8	0.029394105
28	0x3c16960c	0.009191047
29	0x3d5538b7	0.05205604
30	0x3c4709ba	0.012148315
31	0xbc905ee7	-0.017623378
32	0xb95b116f	-0.00020891962
33	0x3d34405f	0.0440067
34	0xbd3143c9	-0.043277536
35	0x3d181845	0.03713252
36	0xbce0390e	-0.027370956
37	0xbd173462	-0.03691519
38	0xbd12e832	-0.03586597
39	0x3cd30951	0.025761278
40	0xbc98896f	-0.018620221
41	0x3cc8de92	0.024520192
42	0x3bedfe4e	0.0072629815
43	0x3ca784a2	0.020448986
44	0xbc659e6f	-0.014014824
45	0x3c3a8f81	0.011386753
46	0x3cf713e4	0.030160852
47	0xbcae5911	-0.021282705
48	0x3d34d957	0.044152584
49	0x3d132eeb	0.035933416
50	0x3ca288b8	0.019840583
51	0xbd3ed303	-0.046587955
52	0xbd5bcd9f	-0.053662892
53	0x3d1a0cf9	0.037610028
54	0x3c9418ad	0.018078173
55	0x3c911a63	0.017712777
56	0x3d4e2722	0.05033029
57	0x3c077a1a	0.008268857
58	0x3d69dd8e	0.057096057
59	0xbd63b593	-0.055593085
60	0xbd49b233	-0.04924221
61	0x3cd67a5d	0.026181394
62	0xbc1d4903	-0.009599927
63	0x3ad633f2	0.0016342385
64	0x3d03d6e4	0.032187358
65	0x3cf34c02	0.02969933
66	0xbcb6644a	-0.022264618
67	0xbbf8caec	-0.0075925495
68	0x3c429207	0.011875636
69	0x3cc017da	0.023448873
70	0x3d3a2df5	0.045453984
71	0xbd62cfed	-0.055374075
72	0x3d51fef1	0.05126852
73	0x3b07b92e	0.002070974
74	0x3d5803df	0.052738067
75	0xbcc0266f	-0.023455827
76	0x3ce58c52	0.028021012
77	0x3c9b703f	0.018974422
78	0x3c035c4c	0.008017611
79	0xbd13122f	-0.035906013
80	0xbc0815f5	-0.008306016
81	0xbcea0c7f	-0.028570412
82	0x3cb46ffe	0.022026058
83	0xbc4fcf42	-0.012683691
84	0x3c1eaa9c	0.009684231
85	0x3d5a1243	0.053240072
86	0x3cdfc8a4	0.027317353
87	0xbd65c07c	-0.05609177
88	0xbd4edf00	-0.050505638
89	0xbc7b5bf6	-0.015341749
90	0xbc9b6667	-0.018969728
91	0x3d165066	0.036697768
92	0x3bccd07e	0.00625044
93	0x3d1634a0	0.03667128
94	0x3d29681a	0.041359045
95	0x3d545fa4	0.051849023
96	0x3c0dc98c	0.00865401
97	0x3d707cfa	0.058712937
98	0x3c3694bf	0.011143862
99	0x3cbc3d24	0.022978373
100	0xbc8cc8a2	-0.017185513
101	0xbb46cf2e	-0.003033589
102	0xbd6ca543	-0.057774793
103	0xbbae7160	-0.005323574
104	0x3ccddecd	0.025130654
105	0xbc9b9bb8	-0.01899515
106	0xbc3185a0	-0.010835081
107	0xbce784b7	-0.028261526
108	0x3c482de2	0.012217971
109	0xbc9d81c0	-0.019226909
110	0x3d2b8eed	0.04188435
111	0x3c53ee97	0.012935302
112	0xbd678021	-0.056518678
113	0x3b8f7eb2	0.004379117
114	0xbd241f73	-0.040069055
115	0x3c05161d	0.008122948
116	0xbbf8faa3	-0.0075982376
117	0xbc8c11c1	-0.01709831
118	0x3d10bd05	0.035336513
119	0x3d2673aa	0.04063765
120	0x3ce741ec	0.028229676
121	0xbd5ab302	-0.05339337
122	0xbb78de85	-0.003797443
123	0xbbd45368	-0.0064796694
124	0xbbc69322	-0.00606002
125	0xbd16046a	-0.036625303
126	0x3d65606d	0.056000162
127	0xbd6bfe23	-0.05761541
128	0x3d502e3a	0.050825335
129	0x3c855635	0.016276458
130	0xbc612083	-0.013740662
131	0x3cf6217f	0.030045269
132	0x3cb08a4f	0.021550326
133	0xbc9c1226	-0.019051623
134	0x3d1bb54c	0.038014695
135	0xbc3bd439	-0.011464172
136	0x3d6de159	0.058076236
137	0xbd500271	-0.05078358
138	0x3bb8f4b3	0.005644405
139	0x3c32216b	0.010872225
140	0x3c777744	0.015104119
141	0xbc17c205	-0.009262566
142	0xb8aed66e	-8.336907e-05
143	0xbbd6876e	-0.006546906
144	0x3cdadcf1	0.026716681
145	0xbd513e40	-0.051084757
146	0x3bac8909	0.0052653593
147	0xbd6670bd	-0.05625986
148	0x3c07b264	0.008282278
149	0x3cafb38f	0.021447925
150	0x3d06971d	0.032858957
151	0xbd2c476f	-0.042060312
152	0xbd4c69e2	-0.049905665
153	0x3d6ea0d3	0.058258843
154	0x3d118caf	0.035534557
155	0x3d0c26f8	0.03421685
156	0x3c522275	0.012825598
157	0xbbd5da58	-0.0065262727
158	0x3cec54f1	0.028849097
159	0xbc6b44cf	-0.014359667
160	0xbd3aabdd	-0.045574058
161	0xbb21e207	-0.0024701373
162	0xbbcacb9a	-0.006188822
163	0xbca50b84	-0.020147093
164	0xbb9ec4a6	-0.0048452197
165	0xbd6410f2	-0.055680223
166	0xbd69477b	-0.056952935
167	0x3c969661	0.018382253
168	0x3c6f9d82	0.014624955
169	0x3c57d946	0.013174361
170	0xbd3e2b2e	-0.046427898
171	0xbd6004fa	-0.054692246
172	0xbd62774d	-0.055289555
173	0x3d4b2547	0.049596097
174	0x3d294478	0.041325063
175	0xbd39ce32	-0.04536266
176	0x3d6563f2	0.05600352
177	0xb8b0937f	-8.419807e-05
178	0xbd4b77e8	-0.0496749
179	0x3d66326f	0.05620044
180	0xbcc289dc	-0.023747377
181	0xbcb277ee	-0.021785703
182	0xbd0882b5	-0.033327777
183	0xbd5c7a6a	-0.05382768
184	0x3c897216	0.016778033
185	0xbd337640	-0.043813944
186	0xbcb00333	-0.0214859
187	0xbc8f4993	-0.017491138
188	0xbcdee5de	-0.027209219
189	0x3d2cc645	0.042181272
190	0x3d63a30c	0.055575415
191	0xbd080be3	-0.03321446
192	0x3d0e3866	0.034721754
193	0xbcbe2239	-0.023209678
194	0xbcef4af4	-0.029210545
195	0xbd171541	-0.036885504
196	0xba89e9a7	-0.0010521904
197	0x3cb476e9	0.022029357
198	0x3d174e73	0.03694005
199	0x3d08c3b3	0.03338976
200	0x3ba56aa7	0.0050481143
201	0xbd062c1f	-0.03275692
202	0x3cf18b62	0.029485408
203	0x3d169d11	0.036770884
204	0x3d10e037	0.035370078
205	0x3d4d3411	0.050098483
206	0xbcdb1ab1	-0.026746126
207	0x3d23a0ee	0.039948396
208	0x3d1248cd	0.03571396
209	0xbd2fe375	-0.04294153
210	0xbcf95657	-0.030436678
211	0xbd1d9c6f	-0.038479265
212	0x3cf0d87e	0.029400107
213	0x3c6ea372	0.014565336
214	0xbd204df9	-0.03913686
215	0x3cf1e37b	0.029527416
216	0xbd4f2e10	-0.050581038
217	0x3d6d2a5f	0.057901736
218	0xbd580d95	-0.052747328
219	0x3d41ee60	0.047346473
220	0xbd445f9f	-0.047942754
221	0x3ccc4164	0.024933524
222	0x3c7fae93	0.015605587
223	0x3be6d295	0.0070441463
224	0x3c7bf640	0.015378535
225	0xbc193b55	-0.009352525
226	0x3d4fc24c	0.050722405
227	0x3c2d5fa9	0.010581889
228	0xbd193f08	-0.037413627
229	0x3cd07dd4	0.025450625
230	0xbca99c74	-0.020704485
231	0xbd44e931	-0.04807395
232	0xbd2677f7	-0.04064175
233	0xb8d22d5f	-0.00010022031
234	0xbce9c421	-0.028535904
235	0x3d68f6e4	0.05687608
236	0xbbd58c1e	-0.0065169474
237	0xbd0d0cda	-0.034436084
238	0x3b55849d	0.0032580264
239	0x3c4973ea	0.0122957025
240	0x3cb25df4	0.021773316
241	0x3c3e8c18	0.011630081
242	0xbd49f4c8	-0.049305707
243	0xbd3ca5e5	-0.046056647
244	0xbd266973	-0.040627908
245	0xbb9fa944	-0.004872473
246	0xbd2b9fb1	-0.04190034
247	0x3b6465b3	0.0034850657
248	0xbc4f2f07	-0.01264549
249	0x3c5faf43	0.0136526255
250	0xbd6015f6	-0.054708444
251	0x3c2446f2	0.01002668
252	0x3cf0da38	0.02940093
253	0x3d0a0538	0.033696383
254	0xbd21cd57	-0.039502468
255	0xbc09c9e9	-0.008409956

L1.2.bias f4 [16]
0	0x3d0121f9	0.03152654
1	0xbd3d72ae	-0.046251945
2	0x3d09ccd4	0.033642605
3	0x3d51bd2c	0.0512058
4	0xbcde3945	-0.027126918
5	0xbd4dbcef	-0.05022901
6	0x3cbbfeb0	0.022948593
7	0x3aa71b75	0.0012749272
8	0xbbb8d75a	-0.0056409063
9	0xbd1ca361	-0.038241748
10	0x3c9deaa9	0.019276934
11	0x3c9b7432	0.018976305
12	0xbcaf659f	-0.021410761
13	0xbbffa24d	-0.00780133
14	0x3d2b86da	0.04187665
15	0x3b626dfd	0.0034550421

L1.4.weight f4 [16, 16, 3, 3]
0	0x3d0fe876	0.0351338
1	0xbd07d796	-0.033164583
2	0xbaf3144b	-0.0018545476
3	0x3ba31c71	0.0049777557
4	0x3d456bc9	0.048198495
5	0xbd8f3d7e	-0.069941506
6	0xbd052f8d	-0.03251605
7	0x3d8f52c4	0.06998208
8	0xbcacca29	-0.021092491
9	0xbcec9d70	-0.028883666
10	0x3d26d05a	0.040726043
11	0xbd359690	-0.04433304
12	0xbca8733a	-0.020562757
13	0x3d40c20d	0.04706006
14	0xbce12d21	-0.02748734
15	0xbb4929bd	-0.0030695044
16	0xbd5aa969	-0.05338422
17	0x3d4a9692	0.04946
18	0xbd155571	-0.036458436
19	0xbce9f94f	-0.028561262
20	0x3cc6bdd5	0.02426044
21	0xbd88f61b	-0.06687566
22	0x3d8c387a	0.068467095
23	0x3d376968	0.044778258
24	0x3be6d15a	0.0070439996
25	0x3d98ed69	0.074671574
26	0x3ca8274a	0.020526547
27	0xbd6fea5e	-0.05857312
28	0xbcc5ddeb	-0.02415367
29	0xbc7887d9	-0.015169107
30	0xbd303c37	-0.043026175
31	0xbd983d9e	-0.074336275
32	0x3bc436d7	0.0059879827
33	0x3b230b91	0.002487872
34	0xbd3cf3fb	-0.046131115
35	0x3ce46b3b	0.027883163
36	0xbcc0b037	-0.023521526
37	0x3d8d4487	0.06897836
38	0x3d5f9c89	0.054592643
39	0xbd96e838	-0.07368511
40	0x3d5e0ee6	0.054213427
41	0xbd2e06df	-0.04248702
42	0x3d9aac30	0.075523734
43	0x3d8c462b	0.06849321
44	0x3d2a724f	0.04161292
45	0x3d8305a0	0.06397557
46	0xbdaa2117	-0.08307093
47	0xbcc0a842	-0.023517732
48	0x3d9c91ea	0.076450184
49	0xbd230594	-0.03980024
50	0xbcaaa308	-0.020829692
51	0xbd81cca0	-0.06337857
52	0x3d7b39f2	0.061334558
53	0xbcba225f	-0.022721468
54	0xbcc0fd12	-0.023558173
55	0x3d555ee0	0.052092433
56	0x3b80c694	0.0039299224
57	0x3d4c444c	0.04986982
58	0x3ba47051	0.005018272
59	0x3d9d4498	0.07679099
60	0x3d120613	0.035650324
61	0xbd4653a1	-0.0484196
62	0x3daa413b	0.08313223
63	0xbca07852	-0.019588623
64	0xbc2a4461	-0.010392279
65	0x3afe8565	0.0019418417
66	0xbcc78633	-0.024355983
67	0xbcc9d3b1	-0.024637075
68	0xbb99561f	-0.004679456
69	0x3d01af01	0.031661037
70	0xbd9a0066	-0.07519607
71	0xbb43b95e	-0.0029865126
72	0xbcdcdea9	-0.026961641
73	0xbd0f1ab9	-0.034937594
74	0xbc9c2d97	-0.019064708
75	0x3da67926	0.08128576
76	0xbc8d67f6	-0.017261487
77	0xbbec843c	-0.007217912
78	0x3cc037e9	0.02346416
79	0x3d4576dd	0.04820906
80	0xbd3c6f98	-0.04600486
81	0x3d79639d	0.060886014
82	0xbd3a265e	-0.045446746
83	0x3da0375b	0.07823058
84	0x3cde3f52	0.027129803
85	0xbd4fa147	-0.050690915
86	0x3d8ca853	0.06868043
87	0xbd012c7e	-0.03153657
88	0x3d627dc0	0.055295706
89	0xbb5bb180	-0.0033522546
90	0x3d8f4ff2	0.0699767
91	0x3ccb7f9b	0.02484112
92	0x3d126e31	0.035749618
93	0xbd58f4c6	-0.05296781
94	0xbcb1ee72	-0.021720145
95	0x3c9a57e0	0.01884073
96	0xbd9fc73e	-0.07801674
97	0xbd8212ea	-0.06351264
98	0xbd4ec6bd	-0.0504825
99	0x3d5a7495	0.053333838
100	0xbd7d2fd1	-0.06181318
101	0x3a6a220a	0.0008931464
102	0xbd872442	-0.065987125
103	0xbd806f50	-0.06271231
104	0xbd493388	-0.04912141
105	0x3d307399	0.043078993
106	0xbbc6b720	-0.0060643107
107	0x3d9aefee	0.07565294
108	0x3d937d2c	0.07201609
109	0xbd41145e	-0.047138564
110	0x3d1f470e	0.038886122
111	0xbd82e4f3	-0.06391325
112	0x3cddb3e0	0.02706331
113	0xbd9ba951	-0.07600654
114	0xbc432ce2	-0.011912556
115	0xbc76eb64	-0.01507077
116	0x3d4e1ed4	0.05032237
117	0xbd28c8a0	-0.041206956
118	0xbd2b8c9d	-0.041882146
119	0xbd2702b7	-0.040774073
120	0xbaa1935d	-0.0012327243
121	0x3cb6ab19	0.022298383
122	0xbc694cdf	-0.014239519
123	0x3c2de249	0.010613033
124	0x3c89d145	0.01682342
125	0x3b62cfde	0.0034608762
126	0xbc1e6f25	-0.009670054
127	0x3d519b02	0.051173218
128	0xbd0630b0	-0.032761276
129	0xbd95df04	-0.073179275
130	0x3d9a63e4	0.07538584
131	0xbd4660ee	-0.048432283
132	0x3cb7005b	0.022339037
133	0x3da31540	0.079630375
134	0x3c816d83	0.01579929
135	0xbd24d018	-0.040237516
136	0x3c9b5b25	0.01896436
137	0x3d9bddbf	0.07610654
138	0xbc7ffc68	-0.015624143
139	0xbd6b089e	-0.057381265
140	0x3c1c0eeb	0.009525041
141	0xbd9892e8	-0.07449895
142	0xbd92ac1f	-0.07161736
143	0xbbb3cab7	-0.005486812
144	0x3c4ec428	0.0126200095
145	0x3d413f4f	0.047179516
146	0xbca496b5	-0.020091394
147	0x3d70e208	0.05880931
148	0xbc4580a8	-0.0120546
149	0xbd4949ad	-0.04914253
150	0x3c821970	0.01588127
151	0x3da61e6e	0.08111273
152	0xbd4fed76	-0.05076357
153	0xbd45e305	-0.048312206
154	0x3d84dad6	0.06487052
155	0x3da5613f	0.08075189
156	0x3ba6425d	0.005073829
157	0xbd8416db	-0.06449672
158	0x3d8a629f	0.06757092
159	0xbd8bf808	-0.068344176
160	0x3d297524	0.04137148
161	0xbd086607	-0.033300426
162	0xbd5ad67a	-0.053427197
163	0x3d5f7c53	0.054561924
164	0xbd65a7a9	-0.056068096
165	0x3d285fff	0.041107174
166	0xbc8c8127	-0.017151428
167	0x3d8bb8d9	0.06822366
168	0x3d1e226a	0.03860704
169	0xbbe8420e	-0.0070879525
170	0xbc37602f	-0.011192366
171	0x3da2e3b9	0.07953591
172	0xbd0fd71c	-0.035117254
173	0xbd0c937b	-0.034320336
174	0x3c9674ba	0.018366206
175	0x3d8f43e1	0.06995369
176	0xbc940a7f	-0.018071411
177	0xbd379066	-0.044815443
178	0xbbd64fb4	-0.006540263
179	0xbd23b3ac	-0.03996627
180	0x3d412027	0.047149803
181	0xbd60f72b	-0.054923218
182	0x3d8c7252	0.06857742
183	0xbc9d08e2	-0.019169275
184	0x3d2797f9	0.040916417
185	0xbd914e4d	-0.07095013
186	0x3d7eae40	0.062177896
187	0x3da81588	0.08207232
188	0x3d3c16c6	0.045920156
189	0xbced7f4b	-0.028991362
190	0xbd69c297	-0.05707034
191	0x3d1add83	0.037808906
192	0xbd4fe716	-0.05075749
193	0xbd6d9b09	-0.05800918
194	0x3c9b3d74	0.018950202
195	0xbbf483c5	-0.007461997
196	0x3cc5ae1c	0.024130873
197	0xbd5f026f	-0.05444568
198	0xbd290211	-0.041261736
199	0x3da80694	0.0820438
200	0x3d744637	0.059637275
201	0x3c470e90	0.012149468
202	0x3c4c80e3	0.012481901
203	0x3c2d7d73	0.010588991
204	0xbd11fa9d	-0.035639394
205	0xbca99958	-0.020703003
206	0xbd00bf2a	-0.03143231
207	0x3c9fcaac	0.019505821
208	0xbc5992f9	-0.01327967
209	0xbd9b5d2f	-0.07586133
210	0xbd1914f7	-0.03737351
211	0xbd6d5217	-0.057939615
212	0x3da83882	0.08213903
213	0xbd944685	-0.07240013
214	0xbcc109d0	-0.02356425
215	0xbc652a78	-0.013987176
216	0xbda27b73	-0.07933702
217	0x3bb0121a	0.0053732516
218	0x3b080214	0.0020753192
219	0x3d1af844	0.03783442
220	0xbc9c54bf	-0.019083379
221	0xbd6b7a3f	-0.05748963
222	0x3ca77b2a	0.020444471
223	0xbcaf8aa2	-0.02142841
224	0x3d838ee0	0.064237356
225	0xbd7f1fe9	-0.06228629
226	0x3d55db21	0.05221093
227	0x3c928fd8	0.017890856
228	0x3bf7986b	0.0075560114
229	0x3c4afb43	0.012389007
230	0x3d7dd7da	0.06197343
231	0xbc6a78fe	-0.014311073
232	0x3c10d080	0.008838773
233	0x3d943fe3	0.07238748
234	0xbd9b56be	-0.07584904
235	0xbd922503	-0.07135966
236	0xba92177e	-0.0011145917
237	0x3c7bb87b	0.015363808
238	0x3da8ffbc	0.082519025
239	0xbd1644fc	-0.036686882
240	0x3c56b395	0.013104339
241	0x3d117ced	0.03551953
242	0x3c88b885	0.016689548
243	0x3d6f5f6b	0.058440607
244	0x3c243938	0.010023408
245	0x3c73d836	0.014883092
246	0x3d1619ee	0.036645822
247	0xbd920a52	-0.07130875
248	0x3d5f66e3	0.05454148
249	0xbd82c2e4	-0.06384829
250	0x3c89a736	0.016803365
251	0x3b5e5e76	0.0033930815
252	0xbd957742	-0.07298137
253	0xbd9ab934	-0.07554856
254	0x3c4bc7ed	0.012437803
255	0xbd9cfe88	-0.076657355

L1.4.bias f4 [16]
0	0x3ce90631	0.028445335
1	0x3d26944f	0.04066878
2	0x3d5a4b75	0.053294618
3	0xbd6e6d38	-0.058209628
4	0xbcee2ddc	-0.029074602
5	0xbcda9ae7	-0.026685191
6	0xbd221067	-0.039566424
7	0x3d8b8851	0.0681311
8	0x3d12d778	0.03585002
9	0xbc4730a4	-0.012157593
10	0xbd919de2	-0.07110192
11	0xbba2eadc	-0.004971845
12	0x3d12a565	0.035802264
13	0xbd840d8e	-0.06447898
14	0xbd305d25	-0.04305758
15	0x3d57f948	0.052727968

L1.5.weight f4 [16]
0	0x3f7fea2b	0.99966687
1	0x3f7fd8fd	0.9994047
2	0x3f7fee3d	0.999729
3	0x3f7fd6f6	0.9993738
4	0x3f800f89	1.0004741
5	0x3f7fdb9d	0.9994448
6	0x3f8016d7	1.000697
7	0x3f80150d	1.0006424
8	0x3f80008f	1.000017
9	0x3f7fd056	0.9992727
10	0x3f801936	1.0007694
11	0x3f8015eb	1.0006689
12	0x3f7fc925	0.999163
13	0x3f8015e5	1.0006682
14	0x3f801931	1.0007688
15	0x3f7fe3c8	0.9995694

L1.5.bias f4 [16]
0	0x39fc7e18	0.00048159133
1	0xb9bda3f9	-0.00036171058
2	0xb99edf52	-0.00030302495
3	0xba524a15	-0.00080219033
4	0x39fac865	0.0004783302
5	0x3a8c0434	0.0010682405
6	0xb9a5d1b0	-0.00031627482
7	0x3a12ea00	0.0005604327
8	0xba1b5c0d	-0.00059264974
9	0xb9bb0478	-0.0003567075
10	0x3a5f846b	0.0008526507
11	0xb860fe1c	-5.364242e-05
12	0xba52c78b	-0.00080405985
13	0xb9d52706	-0.000406556
14	0x3a798937	0.0009519043
15	0x3a2caa46	0.0006586652

L1.5.running_mean f4 [16]
0	0x3d1e5a4d	0.038660336
1	0x3d8a9d85	0.06768326
2	0x3d5a4541	0.053288702
3	0xbd4095c8	-0.047017843
4	0xbd9bb939	-0.07603688
5	0xbc82d8f4	-0.015972592
6	0xbd030d8c	-0.03199534
7	0x3d59d08c	0.0531774
8	0x3d0d1a5d	0.03444897
9	0xbc81560b	-0.015788099
10	0xbd84e1e2	-0.06488396
11	0xbca23f25	-0.0198055
12	0x3c561d47	0.013068504
13	0xbda0b885	-0.07847694
14	0xbcdb684f	-0.026783137
15	0x3d9e790f	0.07737934

L1.5.running_var f4 [16]
0	0x37f0af47	2.869185e-05
1	0x3800e5a7	3.073146e-05
2	0x37d9116a	2.5876525e-05
3	0x37da4dcc	2.6023852e-05
4	0x38173626	3.6051635e-05
5	0x37d9236a	2.5884907e-05
6	0x382c6923	4.110591e-05
7	0x37f3175b	2.8978733e-05
8	0x37e4d981	2.7281001e-05
9	0x37f18997	2.8793509e-05
10	0x37d48c3b	2.533767e-05
11	0x380642ce	3.2010306e-05
12	0x383a4822	4.4413035e-05
13	0x3816cf22	3.5955694e-05
14	0x3818b32c	3.640649e-05
15	0x37eb56c9	2.8054596e-05

MDB.convs.0.0.weight f4 [8, 16, 3, 3]
0	0xbd780aba	-0.060557105
1	0x3d45cade	0.048289172
2	0xbd99bdb0	-0.07506883
3	0x3da50b09	0.080587454
4	0x3d8b965b	0.068157874
5	0x3ba1b9f0	0.0049354956
6	0xbd8af9a5	-0.06785897
7	0x3a594f4e	0.00082897104
8	0x3c53a401	0.01291752
9	0xbca4ef4b	-0.020133635
10	0xbd333d76	-0.043759786
11	0x3d917dd9	0.07104082
12	0xbd2437f8	-0.04009244
13	0x3d62beee	0.055357866
14	0x3d12cebf	0.0358417
15	0xbccdd49f	-0.0251258
16	0x3d946e35	0.07247583
17	0xbc1f6eb7	-0.009730986
18	0x3d1eac4b	0.03873853
19	0x3da5d7ea	0.08097823
20	0xbd26b0ca	-0.040695943
21	0xbda78788	-0.081801474
22	0xbcadc040	-0.021209836
23	0xbd5030e7	-0.050827887
24	0x3d921eec	0.07134804
25	0xbc96b656	-0.018397491
26	0x3d6e4b0d	0.058177043
27	0xbd246c5b	-0.0401424
28	0x3d8355ab	0.06412824
29	0x3da0157d	0.078165986
30	0x3da27469	0.0793236
31	0xbd2cfe8e	-0.04223495
32	0xbcbf7423	-0.023370808
33	0xbd934579	-0.07190985
34	0xbd11b9b2	-0.035577483
35	0xbd880ab2	-0.06642665
36	0xbbfc087f	-0.0076914425
37	0x3d95a52d	0.073068954
38	0x3d5f2525	0.054478783
39	0xbc516bdb	-0.012782062
40	0xbc9dc4ef	-0.019258944
41	0x3d8700ef	0.06591975
42	0xbd94887e	-0.07252596
43	0x3d991aa2	0.07475783
44	0x3c7250f0	0.014789805
45	0xbd345063	-0.044021975
46	0x3b50f4fa	0.0031884299
47	0xbbe97b80	-0.007125318
48	0x3c08ff2b	0.008361618
49	0x3d10ecab	0.035381954
50	0x3c2f8537	0.010712913
51	0xbc1dc48a	-0.009629378
52	0x3b90d71f	0.0044201757
53	0xbd33d10a	-0.043900527
54	0x3da3c15a	0.07995863
55	0x3d955f39	0.07293553
56	0x3d50f9e9	0.051019583
57	0xbd1db6ce	-0.038504414
58	0x3cb257c8	0.021770373
59	0xbd570482	-0.052494533
60	0x3d8b6966	0.068072125
61	0x3ccbbc6a	0.024870116
62	0x3d81d7dd	0.06340001
63	0xbd6e514f	-0.05818301
64	0x3d9575c2	0.07297851
65	0xbc72a3ba	-0.014809543
66	0xbd0c832f	-0.034304794
67	0xbd4c8ecc	-0.04994087
68	0x3d88d698	0.066815555
69	0xbcce2d18	-0.025167987
70	0x3c1da5ed	0.009622079
71	0x3d332f97	0.043746557
72	0xbda893e2	-0.082313314
73	0xbd0df408	-0.034656554
74	0xbcc92326	-0.024552893
75	0x3d64f042	0.05589319
76	0x3d61e48a	0.055149592
77	0x3d66937b	0.056292992
78	0xbca3a359	-0.019975351
79	0x3d156077	0.03646895
80	0x3d0c72b3	0.034289073
81	0x3d815d2e	0.06316601
82	0xbcc2b7e7	-0.023769332
83	0xbd5548a8	-0.052071244
84	0xbd5fac18	-0.05460748
85	0x3cb14639	0.02163993
86	0xbc964e3b	-0.01834785
87	0xbc1df9da	-0.009642089
88	0x3d82c43a	0.063850835
89	0xbd928a1d	-0.07155249
90	0x3d420e96	0.04737719
91	0x3d7bbe5c	0.061460838
92	0x3d83f69d	0.06443522
93	0x3d6c5bfb	0.057704907
94	0xbd7ec06d	-0.06219523
95	0x3c59810f	0.013275399
96	0xbcb82a46	-0.022481095
97	0x3d99ac6d	0.07503591
98	0x3c7aa069	0.015297034
99	0x3ccb2676	0.024798613
100	0xbda46a78	-0.0802812
101	0xbce7dc85	-0.028303394
102	0xbd4ec74f	-0.050483044
103	0x3da7158b	0.08158406
104	0xbbc566f5	-0.0060242363
105	0xbd02d4d8	-0.031941265
106	0x3d85823d	0.065189816
107	0xbcf9cc94	-0.030493058
108	0x3cec9013	0.028877294
109	0xbd6bb33f	-0.05754399
110	0xbcfab5db	-0.030604294
111	0xbd84be44	-0.06481603
112	0xbc9f8519	-0.019472646
113	0xbd32feef	-0.043700155
114	0x3d2f834c	0.042849824
115	0xbd937e94	-0.07201877
116	0xbc576b0f	-0.013148083
117	0x3c948352	0.018129025
118	0xbd595765	-0.05306186
119	0xbd7efe38	-0.06225416
120	0x3c89295f	0.01674336
121	0x3d359812	0.04433448
122	0xbcc9f6aa	-0.024653751
123	0xbd6b1b1e	-0.057398908
124	0xbd3d8d3d	-0.046277273
125	0xbd6e03f0	-0.058109224
126	0xbd2a57fd	-0.04158782
127	0xbd6f6d4a	-0.058453836
128	0x3d8897a2	0.06669547
129	0x3c761850	0.015020445
130	0xbc614217	-0.013748667
131	0x3d294619	0.041326616
132	0x3c9d53d8	0.019205019
133	0x3d9b03c0	0.07569075
134	0x3d2a47bf	0.04157233
135	0x3da39e08	0.079891264
136	0x3d3ef2c1	0.046618227
137	0xbd3e2fdd	-0.046432365
138	0xbd37bbb8	-0.044856757
139	0xbd54ab85	-0.051921386
140	0xbd84a193	-0.0647613
141	0xbce25bf6	-0.027631741
142	0xbc1731a7	-0.009228147
143	0x3beb31b0	0.007177554
144	0x3d890f80	0.066924095
145	0x3b84f8eb	0.0040579936
146	0x3d530693	0.05151994
147	0x3d1224d2	0.035679646
148	0xbc8d776f	-0.017268864
149	0xba783307	-0.0009468053
150	0x3ca11d98	0.019667432
151	0xbcc5f74b	-0.02416577
152	0xbd0277ae	-0.031852417
153	0x3b16fd7e	0.0023039277
154	0xbd5dae02	-0.054121025
155	0xbda6706d	-0.08126912
156	0x3c20d3a6	0.009816086
157	0x3d500756	0.050788246
158	0xbd639172	-0.05555863
159	0x3d0461a7	0.03231969
160	0x3b5f3b6a	0.0034062513
161	0x3bee233b	0.0072673834
162	0xbcf14ff6	-0.029457074
163	0xbd2de302	-0.04245282
164	0xbcd8624f	-0.026414065
165	0xbd53fde6	-0.05175581
166	0xbd9bf072	-0.07614221
167	0x3c5c26ab	0.013436954
168	0x3d1a05ed	0.037603308
169	0x3cef9402	0.02924538
170	0xbd2b1807	-0.04177096
171	0xbd395537	-0.045247283
172	0x3c82c46e	0.015962806
173	0x3d45ed00	0.048321724
174	0x3d88f047	0.06686454
175	0xbd06f955	-0.032952625
176	0x3d8f79da	0.07005663
177	0xbda50bf8	-0.080589235
178	0x3cf5004b	0.029907366
179	0x3c1a5293	0.009419101
180	0xbcc74fc2	-0.024330024
181	0xbc7264a6	-0.014794504
182	0xbd594242	-0.053041704
183	0x3ca76da6	0.020438027
184	0x3d30e35b	0.043185573
185	0xbd294dc6	-0.041333936
186	0x3d88576c	0.066572994
187	0xbcf8f088	-0.030388132
188	0xbd7eeb87	-0.062236335
189	0xbcb3a042	-0.021927003
190	0x3d6ceca7	0.057842877
191	0x3d1c571e	0.03816902
192	0xbc9ed059	-0.019386457
193	0xbbc90f77	-0.0061358768
194	0x3c12c824	0.00895885
195	0x3d7edb46	0.062220834
196	0xbd9bc42b	-0.076057754
197	0xbd991c68	-0.07476121
198	0xbd055799	-0.032554243
199	0xbd933423	-0.07187679
200	0x3d44600c	0.04794316
201	0x3c32f7d3	0.010923344
202	0x3d3e605e	0.04647862
203	0xbd82c365	-0.06384925
204	0xbda87f04	-0.08227351
205	0xbd90894e	-0.07057439
206	0x3d508b32	0.050913997
207	0xbc929597	-0.017893596
208	0xbd09c6b1	-0.033636753
209	0x3d97112e	0.07376324
210	0x3c04ca6d	0.008104903
211	0xbc8e4f75	-0.017371872
212	0x3d896195	0.067080654
213	0x3d98a2fa	0.0745296
214	0xbc9a652e	-0.018847074
215	0x3d189a7c	0.037256703
216	0xbd7bad04	-0.061444297
217	0x3d1b85c8	0.03796938
218	0x3c1548bd	0.00911158
219	0xbd1ccaab	-0.038279217
220	0x3d6acc82	0.05732394
221	0x3d0096e4	0.0313939
222	0x3d44bb4e	0.04803019
223	0x3d71b459	0.059009884
224	0x3c892595	0.016741553
225	0x3d22ed4f	0.039777096
226	0xbd149717	-0.036276903
227	0xbd863892	-0.06553759
228	0xbd8fc345	-0.070196666
229	0xbca3cf5f	-0.019996343
230	0xbcbdefa7	-0.023185564
231	0xbd3bcb5c	-0.045848235
232	0xbcf79f35	-0.030227283
233	0xbd96b1eb	-0.07358154
234	0xbd64e246	-0.055879854
235	0x3d1d2b16	0.038371168
236	0xbb1be986	-0.0023790314
237	0xbd3f5088	-0.04670766
238	0x3da086e2	0.07838227
239	0x3d97e043	0.074158214
240	0xbda4d153	-0.08047738
241	0x3d266a23	0.040628564
242	0xbd35d309	-0.044390712
243	0x3da3cfe5	0.07998637
244	0x3bd52681	0.006504834
245	0x3da01518	0.07816523
246	0xbd4304ac	-0.047611877
247	0xbd6d90c9	-0.057999406
248	0x3daa98a0	0.08329892
249	0xbcb2eb15	-0.021840611
250	0xbd8e1fe4	-0.069396764
251	0x3d6ed05f	0.058304187
252	0x3da58f80	0.08084011
253	0x3987fd65	0.00025938
254	0xbcf70a70	-0.030156344
255	0xbd009bd8	-0.031398624

MDB.convs.0.0.bias f4 [8]
0	0xbd0b3ed0	-0.03399545
1	0x3c29ed0e	0.01037146
2	0x3d0fc69e	0.035101525
3	0x3c0d551b	0.008626248
4	0xbc5d3127	-0.013500488
5	0x3d98a6db	0.074537
6	0xbd0bdbcc	-0.03414516
7	0x3d53975b	0.051658016

MDB.convs.0.1.weight f4 [8]
0	0x3f800f4a	1.0004666
1	0x3f802061	1.0009881
2	0x3f80151a	1.000644
3	0x3f7fd8e5	0.9994033
4	0x3f7fddd4	0.9994786
5	0x3f7fc9f7	0.9991755
6	0x3f7fd350	0.9993181
7	0x3f7fd085	0.9992755

MDB.convs.0.1.bias f4 [8]
0	0x3a48164a	0.0007632716
1	0x3a08925f	0.0005209799
2	0x3a57cebc	0.0008232405
3	0xba00dafd	-0.00049154443
4	0x3931ea99	0.0001696743
5	0xb8e61851	-0.00010971784
6	0xb9cc28fa	-0.00038940442
7	0xba68a8a8	-0.00088752294

MDB.convs.0.1.running_mean f4 [8]
0	0xbc872d0f	-0.016500978
1	0xbd6b136c	-0.05739157
2	0x3d607422	0.054798253
3	0x3bc93090	0.0061398223
4	0xbb2d0034	-0.0026397826
5	0x3d7241f7	0.05914494
6	0x3c6b7364	0.014370773
7	0x3c986e47	0.018607272

MDB.convs.0.1.running_var f4 [8]
0	0x3ceabba7	0.028653933
1	0x3cfb8b8d	0.030706191
2	0x3d25708c	0.040390536
3	0x3c8539db	0.01626294
4	0x3cad8a4f	0.021184115
5	0x3ca23cbc	0.019804351
6	0x3c859010	0.016304046
7	0x3d81d799	0.0633995

MDB.convs.0.3.weight f4 [16, 8, 1, 1]
0	0xbdffbea3	-0.12487533
1	0x3e7df6a0	0.24801111
2	0xbea32db8	-0.31870818
3	0x3e426375	0.18983252
4	0xbe68b6bf	-0.22725962
5	0xbb9b2eb4	-0.004735792
6	0xbe1f3058	-0.15545785
7	0x3d8880a6	0.06665163
8	0xbe37f0aa	-0.179629
9	0xbe7ed970	-0.24887633
10	0xbc29c488	-0.010361798
11	0x3df9ffff	0.122070305
12	0x3e359864	0.17733914
13	0x3e22411a	0.15845147
14	0x3c831cf3	0.016005015
15	0xbdaaa4c9	-0.083322115
16	0x3e486167	0.19568406
17	0xbe35aa60	-0.17740774
18	0x3e6a54d9	0.2288393
19	0xbe643963	-0.22287516
20	0x3d82e887	0.06392007
21	0xbeac9d70	-0.33713865
22	0xbe475fe6	-0.19470176
23	0xbe8f2947	-0.2796118
24	0x3e0e0a32	0.13871077
25	0x3e9aa2c6	0.3020231
26	0xbdca38da	-0.09874125
27	0x3ea05d4c	0.3132118
28	0x3e52c644	0.20583445
29	0x3e41e0ff	0.18933485
30	0xbe8ff41d	-0.2811593
31	0x3dbb75ed	0.09153352
32	0xbe25d866	-0.1619583
33	0xbe9ddcd6	-0.30832547
34	0xbe879f8f	-0.2648892
35	0x3ddabf4a	0.10681017
36	0x3ea2e59f	0.31815812
37	0xba200967	-0.00061049167
38	0xbd787168	-0.060655028
39	0x3eb39ee3	0.35082158
40	0x3eb1867d	0.3467292
41	0x3e974c8f	0.29550597
42	0xbcdc5d08	-0.02689983
43	0xbe9e9e94	-0.3098036
44	0x3e6a64b7	0.22889982
45	0x3cb2db34	0.02183304
46	0x3e2bf4fa	0.1679267
47	0x3e8c00c4	0.27344334
48	0x3c28f3a0	0.010311991
49	0x3e709b4a	0.23496738
50	0x3e8357db	0.25652966
51	0x3e4580a3	0.19287352
52	0xbce9d616	-0.028544467
53	0xbe8e24d8	-0.27762485
54	0x3e36cd1d	0.17851682
55	0x3df09333	0.11746826
56	0x3de78977	0.11305516
57	0x3ea2a174	0.31763804
58	0xbd9096db	-0.070600234
59	0x3d69ee5c	0.057112083
60	0xbc4dc087	-0.012558109
61	0xbe685303	-0.22687916
62	0x3d7fc2ab	0.06244151
63	0x3ea3f164	0.32020104
64	0xbdf6afb6	-0.12045233
65	0x3e393774	0.1808756
66	0x3cc64ec8	0.024207488
67	0xbda93f88	-0.08264071
68	0x3e158e41	0.14605047
69	0xbe696aab	-0.22794597
70	0x3e7674b2	0.24067953
71	0xbe8b99ed	-0.27265874
72	0x3d5fbd65	0.05462398
73	0x3eab4310	0.33449602
74	0x3e7c93c5	0.24665745
75	0x3da789ab	0.08180555
76	0xbeb3fb59	-0.351527
77	0x3e8ae879	0.27130488
78	0xbd12e0f9	-0.035859082
79	0xbe94502e	-0.28967422
80	0xbcdc8b0c	-0.026921771
81	0xbe14c530	-0.14528346
82	0xbe8ee5dd	-0.27909747
83	0xbe8b6ad3	-0.27229938
84	0x3e309276	0.1724337
85	0xbe0e587e	-0.13900945
86	0xbd6652d1	-0.056231324
87	0x3dc35cd6	0.095391914
88	0xbd9347f4	-0.07191458
89	0xbcba1f99	-0.022720145
90	0xbeb3ef73	-0.35143623
91	0x3d801d72	0.06255616
92	0x3e23b1b5	0.15985759
93	0xbe32fa9b	-0.17478411
94	0x3e5555bc	0.20833486
95	0x3e09c71d	0.13454862
96	0x3e8b791e	0.27240843
97	0xbe7fe20c	-0.24988574
98	0x3d4c4445	0.049869794
99	0x3e4064a7	0.18788396
100	0xbe85684a	-0.2605613
101	0x3eb0ed5f	0.345561
102	0xbd6219fd	-0.055200566
103	0xbe7151df	-0.23566388
104	0xbe716879	-0.2357501
105	0xbe3f6dde	-0.18694255
106	0xbe797896	-0.24362406
107	0x3e24508a	0.16046348
108	0x3d0c6a1c	0.03428088
109	0x3e5a55f4	0.21321851
110	0x3e1c3cb3	0.1525753
111	0xbe253204	-0.1613236
112	0x3ea04cdf	0.31308648
113	0x3e63fba0	0.22263956
114	0x3decf66b	0.11570438
115	0x3e2ce287	0.16883288
116	0xbdb0d11d	-0.08633635
117	0x3eac78f9	0.33686045
118	0xbe0d6fa2	-0.13812116
119	0x3e90dd5e	0.2829389
120	0xbe2ec271	-0.17066361
121	0xbdb0fa7a	-0.086415246
122	0xbe810dc4	-0.25205815
123	0x3d7ab07b	0.06120346
124	0xbe961086	-0.2930948
125	0xbe1382c2	-0.14405349
126	0x3e25bb48	0.16184723
127	0xbd067116	-0.03282269

MDB.convs.0.3.bias f4 [16]
0	0x3e2a2d2b	0.16618793
1	0x3ea3579b	0.31902775
2	0xbe5f1209	-0.21784224
3	0xbe8fadd9	-0.28062323
4	0x3e76777b	0.24069016
5	0x3e0bd429	0.13655151
6	0x3e080fea	0.1328732
7	0x3e11a5fa	0.14223471
8	0xbe93028f	-0.2871289
9	0x3d9c994a	0.07646425
10	0x3ea60ec4	0.3243314
11	0xbe934f5b	-0.2877148
12	0x3eb2a487	0.3489115
13	0x3e60914e	0.2193043
14	0x3d4c0a43	0.049814474
15	0x3e905df7	0.2819669

MDB.convs.1.0.weight f4 [8, 16, 3, 3]
0	0xbd780c4c	-0.060558602
1	0xbcd61b24	-0.026135989
2	0x3d8582c0	0.06519079
3	0xbc840c08	-0.016119018
4	0x3cb9b821	0.022670807
5	0xbd14f5ba	-0.036367156
6	0xbc65d5a3	-0.014027986
7	0xbda1e30a	-0.079046324
8	0xbd6b3446	-0.0574229
9	0x3d11e302	0.035616882
10	0x3ca6f78d	0.020381713
11	0xbc89fc7c	-0.016844027
12	0xbd36e311	-0.04465014
13	0xbd8d9d0d	-0.06914721
14	0xbd353255	-0.044237453
15	0xbc24a080	-0.010048032
16	0x3d498ae2	0.049204715
17	0xbcc51ac3	-0.024060613
18	0xbd6b0f4f	-0.057387646
19	0xbd9d96bb	-0.07694765
20	0x3d288149	0.04113892
21	0x3d99a703	0.07502558
22	0xbd812d0d	-0.06307421
23	0xbc8f5819	-0.017498063
24	0x3b02e86d	0.0019974962
25	0x3d23de0d	0.040006686
26	0xbd55004c	-0.052002236
27	0xbcd03e93	-0.025420463
28	0x3da6e1ae	0.08148514
29	0xbd99f541	-0.075174816
30	0x3cf0f199	0.029412078
31	0x3d7b25e4	0.061315432
32	0xbcfa7748	-0.030574456
33	0xbc099d85	-0.008399372
34	0xbd0c7739	-0.034293387
35	0xbd625cac	-0.05526416
36	0x3d4bcc42	0.049755342
37	0xbd01e632	-0.031713672
38	0xbd508373	-0.05090661
39	0x3cb2c36c	0.0218217
40	0x3b24d92d	0.002515386
41	0x3d26e5ad	0.04074638
42	0x3d5c99aa	0.053857483
43	0xbd07826a	-0.033083357
44	0xbcdd9c61	-0.027052106
45	0x3c106a38	0.008814387
46	0xbc9f66f5	-0.019458273
47	0xbd901ed2	-0.070371285
48	0x3cf8407a	0.030304182
49	0x3d9aac44	0.07552388
50	0xbd5bcb32	-0.05366058
51	0x3d8b6b92	0.06807627
52	0x3cd5a364	0.026078887
53	0xbd5aa313	-0.053378176
54	0x3da603c7	0.08106189
55	0xbcd8b070	-0.02645132
56	0xbcafd200	-0.02146244
57	0xbda92d64	-0.08260611
58	0xbb8c4f75	-0.004281933
59	0xbd7ba02a	-0.06143204
60	0x3d30b192	0.043138094
61	0x3d5c404d	0.05377226
62	0xbda51a87	-0.080617
63	0xbd8e6235	-0.06952325
64	0x3beae640	0.007168561
65	0xbdabea94	-0.083943516
66	0x3d0f66f7	0.035010304
67	0xbd510118	-0.051026434
68	0x3b1d940b	0.002404454
69	0x3d464043	0.04840113
70	0x3d033bd1	0.032039467
71	0x3d7bd29e	0.061480157
72	0x3d60bd52	0.05486805
73	0x3c832909	0.016010778
74	0x3da769bb	0.08174463
75	0xbcc6d659	-0.02427213
76	0xbd83a178	-0.06427282
77	0x3d1dbd11	0.038510386
78	0x3d63ba92	0.05559785
79	0x3d2d09aa	0.042245544
80	0xbc987d73	-0.018614506
81	0xbc832829	-0.01601036
82	0xbd92cffa	-0.07168575
83	0x3cb8a103	0.022537714
84	0x3d87d773	0.066328906
85	0xbc0cd4fb	-0.0085957
86	0xbd4eedab	-0.050519627
87	0x3ada9c5f	0.0016678682
88	0x3d8f04f8	0.069833696
89	0xbd824e3e	-0.0636258
90	0x3d3df259	0.0463737
91	0xbd41ddef	-0.047330793
92	0xbd4d1616	-0.05006989
93	0x3d074fd0	0.0330351
94	0xbd6d55df	-0.05794322
95	0x3ab63b09	0.0013903092
96	0x3c88714f	0.016655592
97	0xbd85dce6	-0.06536274
98	0x3c446972	0.011988031
99	0x3d65c4d8	0.056095928
100	0x3d8f3f24	0.06994465
101	0x3da9426a	0.082646206
102	0xbc9b26d2	-0.01893941
103	0xbd8ee807	-0.069778495
104	0x3ae2bb5c	0.0017298269
105	0xbd5b3a6a	-0.053522505
106	0x3da83519	0.082132526
107	0x3cd8ab42	0.02644885
108	0xbd9bb1e8	-0.07602292
109	0x3d7c9ff0	0.061675966
110	0xbd261616	-0.040548407
111	0xbcb7244d	-0.022356177
112	0xbb52dffa	-0.0032176957
113	0x3d974e02	0.07387926
114	0x3d8254aa	0.06363805
115	0x3d8e5b0d	0.0695096
116	0xbd3a8823	-0.045539986
117	0x3c42942f	0.01187615
118	0x3d7fec6a	0.06248132
119	0xbc2d5dfd	-0.010581491
120	0x3c6dc925	0.014513289
121	0x3d0944ec	0.033512995
122	0xbda14fff	-0.07876586
123	0x3d67bef1	0.05657858
124	0x3d4fe4cc	0.050755307
125	0xbd8c9546	-0.06864409
126	0x3c5fb85b	0.013654794
127	0x3be235c0	0.00690338
128	0x3d644594	0.055730417
129	0x3d3aa4b3	0.045567226
130	0xbd33853a	-0.043828227
131	0xbd72d0ac	-0.059281036
132	0x3d8af656	0.06785266
133	0x3d577826	0.052604817
134	0x3d811edf	0.06304716
135	0x3b5f14de	0.0034039537
136	0x3d61cee0	0.055128932
137	0xbdab8a14	-0.08375946
138	0x3d920244	0.071293384
139	0xbd478db7	-0.048719134
140	0x3d7d5e4c	0.061857507
141	0xbd86f841	-0.065903194
142	0xbd9e8448	-0.077400744
143	0x3d317d2d	0.043332268
144	0x3c6dd933	0.014517116
145	0x3d8ed0ae	0.06973396
146	0xbd0e2329	-0.0347015
147	0x3c653f95	0.01399221
148	0x3da9c763	0.08289983
149	0xbd5ae5bb	-0.053441744
150	0x3d359478	0.044331044
151	0x3d2bf815	0.041984636
152	0xbc5384c2	-0.01291007
153	0xbd529136	-0.051408015
154	0x3d8a2ae5	0.06746463
155	0x3d550f62	0.052016623
156	0xbd5f49c3	-0.054513704
157	0x3d907d3e	0.07055138
158	0x3d86d0a1	0.065827616
159	0xbcaf5f19	-0.02140765
160	0xbda4abc8	-0.08040577
161	0xbd092aa1	-0.03348792
162	0xbd0e0301	-0.034670833
163	0xbd18d1fb	-0.037309628
164	0x3caac93a	0.020847905
165	0x3d1807b4	0.03711672
166	0xbd9be379	-0.07611746
167	0x3d31aa1e	0.043375127
168	0xbd459b47	-0.048243787
169	0x3cae7253	0.021294748
170	0xbd8edcaf	-0.06975686
171	0xbd98ccf4	-0.07460967
172	0xbc74bead	-0.014938039
173	0x3d79355f	0.060841914
174	0x3cd54a5d	0.026036436
175	0xbd6db32c	-0.0580322
176	0xbd40e884	-0.047096744
177	0x3d5469e8	0.051858813
178	0x3d441407	0.047870662
179	0xbd7f55d9	-0.06233773
180	0x3c38f4de	0.01128885
181	0xbda5867e	-0.08082293
182	0x3d2c8bc7	0.04212549
183	0xbb26f9b7	-0.0025478431
184	0x3d5ac51e	0.05341064
185	0x3d3a3c09	0.04546741
186	0xbd9a08df	-0.07521223
187	0x3d2b2ce4	0.041790858
188	0x3d797a37	0.06090757
189	0x3c2ac678	0.010423295
190	0x3c5d30c2	0.013500394
191	0x3d820294	0.06348148
192	0x3d84a04b	0.06475886
193	0x3d9cb214	0.07651153
194	0x3d730cba	0.05933831
195	0xbd969147	-0.07351928
196	0x3d7e1b31	0.06203765
197	0xbd814f94	-0.063140064
198	0xbca4d087	-0.020118965
199	0x3d37521b	0.044756036
200	0x3d54257c	0.05179356
201	0x3d8044ed	0.062631465
202	0xbd8363d1	-0.06415523
203	0xbd0ae8d2	-0.03391344
204	0x3c2fac90	0.010722294
205	0xbd806e1d	-0.062710024
206	0xbd7c57d6	-0.061607204
207	0xbd225b85	-0.03963806
208	0x3c1b9043	0.009494844
209	0x3cf8df9f	0.030380068
210	0xbd141a1b	-0.03615771
211	0x3d33bf79	0.043883774
212	0xbd8de9d8	-0.06929368
213	0x3d0fab59	0.03507552
214	0xbd951ed1	-0.072812684
215	0xbcab4cd2	-0.020910654
216	0x3b587efa	0.0033034668
217	0x3c015bd7	0.0078954315
218	0xbd836c4d	-0.06417141
219	0xbb576910	-0.0032869019
220	0x3cb1fc46	0.021726739
221	0xbd61f3ca	-0.055164136
222	0xbd4f5468	-0.050617605
223	0x3bca4f07	0.0061739716
224	0x3d236ebb	0.039900523
225	0xbbaa2908	-0.0051928796
226	0x3d89840d	0.0671464
227	0x3d0f52d7	0.03499111
228	0xbce1c85c	-0.02756136
229	0x3bf03fc9	0.0073318225
230	0xbd38e6dc	-0.04514204
231	0x3bf3bd29	0.007438321
232	0x3d1c8476	0.038212262
233	0x3d62cc39	0.055370543
234	0xbba26aa3	-0.0049565597
235	0xbd36f24f	-0.044664677
236	0x3d0282cb	0.031863015
237	0xbda9d046	-0.08291678
238	0x3d391517	0.04518613
239	0x3d6a91c5	0.057267923
240	0x3d6bad8d	0.057538558
241	0x3b9038cf	0.0044013034
242	0xbd861213	-0.06546416
243	0xbd95b93c	-0.07310721
244	0xbda3e26b	-0.0800217
245	0x3d6c855c	0.05774437
246	0x3d571731	0.05251235
247	0x3d0e1c29	0.034694824
248	0xba860533	-0.0010224938
249	0xbcf2ae17	-0.029624028
250	0xbc34879a	-0.011018658
251	0xbd22c0b9	-0.039734576
252	0xbd9f67f3	-0.077834986
253	0xbd887f3c	-0.06664893
254	0xbce5bc5b	-0.028043916
255	0xbcf253ff	-0.029581068

MDB.convs.1.0.bias f4 [8]
0	0x3cc3d104	0.023903377
1	0xbc4a685b	-0.012353982
2	0xbbefd01a	-0.007318509
3	0x3d82681e	0.06367515
4	0xbd0ed369	-0.034869585
5	0xbd67e816	-0.05661782
6	0xbce1f59c	-0.027582936
7	0x3d210539	0.03931162

MDB.convs.1.1.weight f4 [8]
0	0x3f7fcfa3	0.99926203
1	0x3f7fe5d2	0.9996005
2	0x3f7fc883	0.9991533
3	0x3f7fd578	0.999351
4	0x3f8005e2	1.0001795
5	0x3f801663	1.0006832
6	0x3f7fedd1	0.99972254
7	0x3f800b0e	1.0003374

MDB.convs.1.1.bias f4 [8]
0	0x39c7df1b	0.00038122464
1	0x37a6b6b9	1.9873829e-05
2	0xba17c40c	-0.0005789406
3	0xba36e565	-0.00069769315
4	0x39ce754e	0.0003937878
5	0x3a2ae2ef	0.0006518801
6	0xb93b8c8f	-0.00017886072
7	0x39ed0628	0.0004520875

MDB.convs.1.1.running_mean f4 [8]
0	0x3d6d484a	0.05793027
1	0xbc9134a2	-0.017725293
2	0xbd4c5e8a	-0.049894847
3	0x3cafd5da	0.021464277
4	0xbcfaf68b	-0.030635139
5	0xbe36aeef	-0.1784017
6	0xbd21f6e0	-0.03954208
7	0x3e027297	0.12739025

MDB.convs.1.1.running_var f4 [8]
0	0x3d012e32	0.031538196
1	0x3d21b0ac	0.039475128
2	0x3d5cd0da	0.053910114
3	0x3d840fd2	0.0644833
4	0x3c870f28	0.01648672
5	0x3e1f014b	0.15527837
6	0x3ca52ab6	0.020161968
7	0x3e06bd73	0.13158207

MDB.convs.1.3.weight f4 [16, 8, 1, 1]
0	0xbe2d79d0	-0.16940999
1	0x3d194895	0.037422735
2	0xbcabf7d5	-0.020992199
3	0xbc82ce94	-0.015967645
4	0x3d9f206b	0.07769855
5	0xbc36da55	-0.011160453
6	0x3e9ca714	0.3059622
7	0xbd83e067	-0.06439286
8	0xbd8c1c4c	-0.06841335
9	0xbe852c3c	-0.2601031
10	0x3e9348ce	0.28766483
11	0xbd0424c3	-0.03226162
12	0x3d1f0130	0.038819492
13	0xbdd60338	-0.10449833
14	0x3ea9be16	0.33152837
15	0xbe30832f	-0.17237543
16	0x3b802f09	0.003911857
17	0xbdcbf9bd	-0.09959743
18	0x3e7a2b0a	0.2443048
19	0xbdc981b8	-0.09839195
20	0x3e92c8c6	0.28668803
21	0x3db427ee	0.087966785
22	0x3e1fdc9c	0.156115
23	0xbe775cdb	-0.24156515
24	0xbd735e4d	-0.059416104
25	0x3e7be80e	0.2460024
26	0xbe7ef308	-0.24897397
27	0x3e476ee5	0.19475897
28	0x3dc22437	0.09479564
29	0xbeb3c141	-0.3510838
30	0xbd865a47	-0.06560188
31	0xbe801615	-0.25016847
32	0xbdbfb962	-0.09361531
33	0xbe43b3c5	-0.19111545
34	0x3e6ced1e	0.23137328
35	0x3eb20090	0.34766054
36	0xbe94e3af	-0.2907996
37	0x3e9a153e	0.30094332
38	0x3e87c80b	0.26519808
39	0x3d9a7a0b	0.07542809
40	0xbea5a462	-0.32351977
41	0x3c02d472	0.007985221
42	0xbe041c90	-0.1290152
43	0xbe7be70a	-0.24599853
44	0xbb82fd3e	-0.003997474
45	0x3c91efd3	0.017814552
46	0xbce0d39c	-0.027444653
47	0xbe2be233	-0.16785507
48	0x3cf020d3	0.029312527
49	0xbe621ee6	-0.220821
50	0xbdc2a46c	-0.09504017
51	0x3e0d3318	0.13789022
52	0x3d92ab5d	0.07161591
53	0xbe64bca5	-0.22337587
54	0x3e81f8bf	0.2538509
55	0x3e3d595e	0.18491122
56	0x3df59beb	0.119926296
57	0xbe7cc7b9	-0.24685563
58	0x3e3ca571	0.18422486
59	0x3e93779e	0.28802198
60	0xbe0daf27	-0.13836347
61	0x3e7d6906	0.24747095
62	0xbe020030	-0.12695384
63	0x3e9f85f6	0.31156892
64	0xbe8e693c	-0.27814662
65	0xbdac74b6	-0.08420698
66	0xbe53eaa6	-0.2069498
67	0x3d0bd7d8	0.03414139
68	0xbe3361b2	-0.17517737
69	0x3d74486b	0.059639376
70	0xbeaa9cb9	-0.33322695
71	0xbe350dde	-0.17681071
72	0x3e1e28e6	0.15445289
73	0xbe0a93d2	-0.13532951
74	0x3e460e67	0.19341432
75	0xbe63a06e	-0.22229168
76	0xbe8c4b7e	-0.27401346
77	0x3e8cca25	0.27497974
78	0xbc16ba00	-0.009199619
79	0x3ea01d49	0.31272343
80	0x3e861ed0	0.26195383
81	0xbde528e4	-0.1118944
82	0xbe0b6559	-0.1361288
83	0xbe90d8f2	-0.28290516
84	0x3e23df04	0.16003042
85	0x3e31de91	0.17370059
86	0x3e2a3fae	0.16625854
87	0x3da9c882	0.08290197
88	0xbe4eba3f	-0.20188235
89	0x3c46577a	0.012105817
90	0x3e34385d	0.17599626
91	0xbe8dd224	-0.27699387
92	0x3e952096	0.29126424
93	0x3d5c54df	0.053791877
94	0x3d9e1965	0.07719687
95	0xbe23d035	-0.15997393
96	0xbe348090	-0.17627168
97	0x3d094935	0.03351708
98	0xbe496d96	-0.1967071
99	0xbe999826	-0.29998893
100	0xbe837d38	-0.25681472
101	0x3cfc27ce	0.0307807
102	0xbd3dfc46	-0.046383165
103	0xbdcc62ba	-0.09979768
104	0x3e539ca0	0.20665216
105	0x3d2b5ca8	0.04183641
106	0x3dc3e44e	0.0956503
107	0x3d83d787	0.06437593
108	0xbcd32317	-0.025773568
109	0x3e38bd3c	0.18040937
110	0xbe2a5d1e	-0.16637084
111	0x3c1b0de8	0.009463765
112	0x3e6a707e	0.22894475
113	0xbe0de2a2	-0.13855985
114	0xbe73326a	-0.237497
115	0xbb0a65de	-0.0021117846
116	0xbe8d23f6	-0.275665
117	0xbe8108a2	-0.252019
118	0xbea39e1d	-0.31956568
119	0xbea829c6	-0.3284437
120	0xbd942d95	-0.072352566
121	0x3e57e909	0.2108499
122	0x3d3147be	0.04328131
123	0x3e869e21	0.26292518
124	0xbe4a9b37	-0.19785772
125	0xbd9cb6d5	-0.0765206
126	0xbdc018bc	-0.09379718
127	0x3e9b3baf	0.30318972

MDB.convs.1.3.bias f4 [16]
0	0x3e9db1a1	0.30799583
1	0xbdc3719e	-0.09543155
2	0x3e854626	0.26030082
3	0x3e770ec0	0.2412672
4	0x3e558995	0.20853265
5	0xbe2ff3e6	-0.17182884
6	0x3dd02caf	0.10164773
7	0xbd98b388	-0.07456118
8	0xbe8103c2	-0.2519818
9	0x3eadb74b	0.33928904
10	0x3d7a55d2	0.061117
11	0xbd65fea7	-0.05615106
12	0x3dd40a8d	0.10353575
13	0x3e827e4a	0.25486976
14	0xbda86012	-0.08221449
15	0xbea18cc1	-0.315527
